…
 num_heads          | 4                   
 num_layers         | 1                   
 num_neg            | 1                   
 num_workers        | 5                   
 optimizer          | Adam                
 random_seed        | 0                   
 save_final_results | 1                   
 test_all           | 0                   
 time_max           | 512                 
 topk               | 5,10,20,50          
===========================================
INFO:root:Device: cuda
INFO:root:Load corpus from ../data/MovieLens_1M/ML_1MTOPK/SeqReader.pkl
INFO:root:#params: 289472
INFO:root:TiSASRec(
  (i_embeddings): Embedding(3126, 64)
  (p_k_embeddings): Embedding(21, 64)
  (p_v_embeddings): Embedding(21, 64)
  (t_k_embeddings): Embedding(513, 64)
  (t_v_embeddings): Embedding(513, 64)
  (transformer_block): ModuleList(
    (0): TimeIntervalTransformerLayer(
      (masked_attn_head): TimeIntervalMultiHeadAttention(
        (v_linear): Linear(in_features=64, out_features=64, bias=True)
        (k_linear): Linear(in_features=64, out_features=64, bias=True)
        (q_linear): Linear(in_features=64, out_features=64, bias=True)
      )
      (layer_norm1): LayerNorm((64,), eps=1e-05, elementwise_affine=True)
      (dropout1): Dropout(p=0, inplace=False)
      (linear1): Linear(in_features=64, out_features=64, bias=True)
      (linear2): Linear(in_features=64, out_features=64, bias=True)
      (layer_norm2): LayerNorm((64,), eps=1e-05, elementwise_affine=True)
      (dropout2): Dropout(p=0, inplace=False)
    )
  )
)
INFO:root:Test Before Training: (HR@5:0.0508,NDCG@5:0.0312,HR@10:0.0974,NDCG@10:0.0460,HR@20:0.2049,NDCG@20:0.0728,HR@50:0.5108,NDCG@50:0.1325)
INFO:root:Optimizer: Adam
INFO:root:Epoch 1     loss=0.2398 [19.6 s]	dev=(HR@5:0.4532,NDCG@5:0.3139) [0.2 s] *
INFO:root:Epoch 2     loss=0.1512 [18.3 s]	dev=(HR@5:0.4938,NDCG@5:0.3462) [0.1 s] *
…
