…
INFO:root:Reading data from "../data/", dataset = "MovieLens_1M/ML_1MTOPK" 
INFO:root:Counting dataset statistics...
INFO:root:"# user": 6032, "# item": 3125, "# entry": 574197
INFO:root:Appending history info...
INFO:root:TIGERReader: loaded codes from ../data/MovieLens_1M/ML_1MTOPK/item_codes_converted.npy (shape=(3126, 4))
INFO:root:TIGERReader: saved converted codes to ../data/MovieLens_1M/ML_1MTOPK/item_codes_converted.npy
INFO:root:Save corpus to ../data/MovieLens_1M/ML_1MTOPK/TIGERReader.pkl
INFO:root:TIGER: using corpus.item_codes already present
INFO:root:#params: 4400896
INFO:root:TIGER(
  (model): T5ForConditionalGeneration(
    (shared): Embedding(3127, 128)
    (encoder): T5Stack(
      (embed_tokens): Embedding(3127, 128)
      (block): ModuleList(
        (0): T5Block(
          (layer): ModuleList(
            (0): T5LayerSelfAttention(
              (SelfAttention): T5Attention(
                (q): Linear(in_features=128, out_features=384, bias=False)
                (k): Linear(in_features=128, out_features=384, bias=False)
                (v): Linear(in_features=128, out_features=384, bias=False)
                (o): Linear(in_features=384, out_features=128, bias=False)
                (relative_attention_bias): Embedding(32, 6)
              )
              (layer_norm): FusedRMSNorm(torch.Size([128]), eps=1e-06, elementwise_affine=True)
              (dropout): Dropout(p=0.1, inplace=False)
            )
            (1): T5LayerFF(
              (DenseReluDense): T5DenseActDense(
                (wi): Linear(in_features=128, out_features=1024, bias=False)
                (wo): Linear(in_features=1024, out_features=128, bias=False)
                (dropout): Dropout(p=0.1, inplace=False)
                (act): ReLU()
              )
              (layer_norm): FusedRMSNorm(torch.Size([128]), eps=1e-06, elementwise_affine=True)
              (dropout): Dropout(p=0.1, inplace=False)
            )
          )
        )
        (1-2): 2 x T5Block(
          (layer): ModuleList(
            (0): T5LayerSelfAttention(
              (SelfAttention): T5Attention(
                (q): Linear(in_features=128, out_features=384, bias=False)
                (k): Linear(in_features=128, out_features=384, bias=False)
                (v): Linear(in_features=128, out_features=384, bias=False)
                (o): Linear(in_features=384, out_features=128, bias=False)
              )
              (layer_norm): FusedRMSNorm(torch.Size([128]), eps=1e-06, elementwise_affine=True)
              (dropout): Dropout(p=0.1, inplace=False)
            )
            (1): T5LayerFF(
              (DenseReluDense): T5DenseActDense(
                (wi): Linear(in_features=128, out_features=1024, bias=False)
                (wo): Linear(in_features=1024, out_features=128, bias=False)
                (dropout): Dropout(p=0.1, inplace=False)
                (act): ReLU()
              )
              (layer_norm): FusedRMSNorm(torch.Size([128]), eps=1e-06, elementwise_affine=True)
              (dropout): Dropout(p=0.1, inplace=False)
            )
          )
        )
      )
      (final_layer_norm): FusedRMSNorm(torch.Size([128]), eps=1e-06, elementwise_affine=True)
      (dropout): Dropout(p=0.1, inplace=False)
    )
    (decoder): T5Stack(
      (embed_tokens): Embedding(3127, 128)
      (block): ModuleList(
        (0): T5Block(
          (layer): ModuleList(
            (0): T5LayerSelfAttention(
              (SelfAttention): T5Attention(
                (q): Linear(in_features=128, out_features=384, bias=False)
                (k): Linear(in_features=128, out_features=384, bias=False)
                (v): Linear(in_features=128, out_features=384, bias=False)
                (o): Linear(in_features=384, out_features=128, bias=False)
                (relative_attention_bias): Embedding(32, 6)
              )
              (layer_norm): FusedRMSNorm(torch.Size([128]), eps=1e-06, elementwise_affine=True)
              (dropout): Dropout(p=0.1, inplace=False)
            )
            (1): T5LayerCrossAttention(
              (EncDecAttention): T5Attention(
                (q): Linear(in_features=128, out_features=384, bias=False)
                (k): Linear(in_features=128, out_features=384, bias=False)
                (v): Linear(in_features=128, out_features=384, bias=False)
                (o): Linear(in_features=384, out_features=128, bias=False)
              )
              (layer_norm): FusedRMSNorm(torch.Size([128]), eps=1e-06, elementwise_affine=True)
              (dropout): Dropout(p=0.1, inplace=False)
            )
            (2): T5LayerFF(
              (DenseReluDense): T5DenseActDense(
                (wi): Linear(in_features=128, out_features=1024, bias=False)
                (wo): Linear(in_features=1024, out_features=128, bias=False)
                (dropout): Dropout(p=0.1, inplace=False)
                (act): ReLU()
              )
              (layer_norm): FusedRMSNorm(torch.Size([128]), eps=1e-06, elementwise_affine=True)
              (dropout): Dropout(p=0.1, inplace=False)
            )
          )
        )
        (1-3): 3 x T5Block(
          (layer): ModuleList(
            (0): T5LayerSelfAttention(
              (SelfAttention): T5Attention(
                (q): Linear(in_features=128, out_features=384, bias=False)
                (k): Linear(in_features=128, out_features=384, bias=False)
                (v): Linear(in_features=128, out_features=384, bias=False)
                (o): Linear(in_features=384, out_features=128, bias=False)
              )
              (layer_norm): FusedRMSNorm(torch.Size([128]), eps=1e-06, elementwise_affine=True)
              (dropout): Dropout(p=0.1, inplace=False)
            )
            (1): T5LayerCrossAttention(
              (EncDecAttention): T5Attention(
                (q): Linear(in_features=128, out_features=384, bias=False)
                (k): Linear(in_features=128, out_features=384, bias=False)
                (v): Linear(in_features=128, out_features=384, bias=False)
                (o): Linear(in_features=384, out_features=128, bias=False)
              )
              (layer_norm): FusedRMSNorm(torch.Size([128]), eps=1e-06, elementwise_affine=True)
              (dropout): Dropout(p=0.1, inplace=False)
            )
            (2): T5LayerFF(
              (DenseReluDense): T5DenseActDense(
                (wi): Linear(in_features=128, out_features=1024, bias=False)
                (wo): Linear(in_features=1024, out_features=128, bias=False)
                (dropout): Dropout(p=0.1, inplace=False)
                (act): ReLU()
              )
              (layer_norm): FusedRMSNorm(torch.Size([128]), eps=1e-06, elementwise_affine=True)
              (dropout): Dropout(p=0.1, inplace=False)
            )
          )
        )
      )
      (final_layer_norm): FusedRMSNorm(torch.Size([128]), eps=1e-06, elementwise_affine=True)
      (dropout): Dropout(p=0.1, inplace=False)
    )
    (lm_head): Linear(in_features=128, out_features=3127, bias=False)
  )
)
INFO:root:Test Before Training: (HR@5:0.0418,NDCG@5:0.0225,HR@10:0.0859,NDCG@10:0.0366,HR@20:0.1903,NDCG@20:0.0627,HR@50:0.4878,NDCG@50:0.1206)
INFO:root:Optimizer: Adam
INFO:root:Epoch 1     loss=2.8761 [57.0 s]	dev=(HR@5:0.0765,NDCG@5:0.0448) [18.3 s] *
INFO:root:Epoch 2     loss=1.3720 [57.1 s]	dev=(HR@5:0.0714,NDCG@5:0.0431) [18.4 s]
INFO:root:Epoch 3     loss=1.3613 [56.6 s]	dev=(HR@5:0.0835,NDCG@5:0.0499) [18.3 s] *
…
