…
 random_seed          | 0                   
 save_converted_codes | 1                   
 save_final_results   | 1                   
 test_all             | 0                   
 tiger_code_path      |                     
 topk                 | 5,10,20,50          
 vocab_size           | 1025                
=============================================
INFO:root:Device: cuda
INFO:root:Load corpus from ../data/MovieLens_1M/ML_1MTOPK/TIGERReader.pkl
INFO:root:TIGER: using corpus.item_codes already present
INFO:root:#params: 3941888
INFO:root:TIGER(
  (model): T5ForConditionalGeneration(
    (shared): Embedding(3127, 128)
    (encoder): T5Stack(
      (embed_tokens): Embedding(3127, 128)
      (block): ModuleList(
        (0): T5Block(
          (layer): ModuleList(
            (0): T5LayerSelfAttention(
              (SelfAttention): T5Attention(
                (q): Linear(in_features=128, out_features=384, bias=False)
                (k): Linear(in_features=128, out_features=384, bias=False)
                (v): Linear(in_features=128, out_features=384, bias=False)
                (o): Linear(in_features=384, out_features=128, bias=False)
                (relative_attention_bias): Embedding(32, 6)
              )
              (layer_norm): FusedRMSNorm(torch.Size([128]), eps=1e-06, elementwise_affine=True)
              (dropout): Dropout(p=0.1, inplace=False)
            )
            (1): T5LayerFF(
              (DenseReluDense): T5DenseActDense(
                (wi): Linear(in_features=128, out_features=1024, bias=False)
                (wo): Linear(in_features=1024, out_features=128, bias=False)
                (dropout): Dropout(p=0.1, inplace=False)
                (act): ReLU()
              )
              (layer_norm): FusedRMSNorm(torch.Size([128]), eps=1e-06, elementwise_affine=True)
              (dropout): Dropout(p=0.1, inplace=False)
            )
          )
        )
        (1): T5Block(
          (layer): ModuleList(
            (0): T5LayerSelfAttention(
              (SelfAttention): T5Attention(
                (q): Linear(in_features=128, out_features=384, bias=False)
                (k): Linear(in_features=128, out_features=384, bias=False)
                (v): Linear(in_features=128, out_features=384, bias=False)
                (o): Linear(in_features=384, out_features=128, bias=False)
              )
              (layer_norm): FusedRMSNorm(torch.Size([128]), eps=1e-06, elementwise_affine=True)
              (dropout): Dropout(p=0.1, inplace=False)
            )
            (1): T5LayerFF(
              (DenseReluDense): T5DenseActDense(
                (wi): Linear(in_features=128, out_features=1024, bias=False)
                (wo): Linear(in_features=1024, out_features=128, bias=False)
                (dropout): Dropout(p=0.1, inplace=False)
                (act): ReLU()
              )
              (layer_norm): FusedRMSNorm(torch.Size([128]), eps=1e-06, elementwise_affine=True)
              (dropout): Dropout(p=0.1, inplace=False)
            )
          )
        )
      )
      (final_layer_norm): FusedRMSNorm(torch.Size([128]), eps=1e-06, elementwise_affine=True)
      (dropout): Dropout(p=0.1, inplace=False)
    )
    (decoder): T5Stack(
      (embed_tokens): Embedding(3127, 128)
      (block): ModuleList(
        (0): T5Block(
          (layer): ModuleList(
            (0): T5LayerSelfAttention(
              (SelfAttention): T5Attention(
                (q): Linear(in_features=128, out_features=384, bias=False)
                (k): Linear(in_features=128, out_features=384, bias=False)
                (v): Linear(in_features=128, out_features=384, bias=False)
                (o): Linear(in_features=384, out_features=128, bias=False)
                (relative_attention_bias): Embedding(32, 6)
              )
              (layer_norm): FusedRMSNorm(torch.Size([128]), eps=1e-06, elementwise_affine=True)
              (dropout): Dropout(p=0.1, inplace=False)
            )
            (1): T5LayerCrossAttention(
              (EncDecAttention): T5Attention(
                (q): Linear(in_features=128, out_features=384, bias=False)
                (k): Linear(in_features=128, out_features=384, bias=False)
                (v): Linear(in_features=128, out_features=384, bias=False)
                (o): Linear(in_features=384, out_features=128, bias=False)
              )
              (layer_norm): FusedRMSNorm(torch.Size([128]), eps=1e-06, elementwise_affine=True)
              (dropout): Dropout(p=0.1, inplace=False)
            )
            (2): T5LayerFF(
              (DenseReluDense): T5DenseActDense(
                (wi): Linear(in_features=128, out_features=1024, bias=False)
                (wo): Linear(in_features=1024, out_features=128, bias=False)
                (dropout): Dropout(p=0.1, inplace=False)
                (act): ReLU()
              )
              (layer_norm): FusedRMSNorm(torch.Size([128]), eps=1e-06, elementwise_affine=True)
              (dropout): Dropout(p=0.1, inplace=False)
            )
          )
        )
        (1-3): 3 x T5Block(
          (layer): ModuleList(
            (0): T5LayerSelfAttention(
              (SelfAttention): T5Attention(
                (q): Linear(in_features=128, out_features=384, bias=False)
                (k): Linear(in_features=128, out_features=384, bias=False)
                (v): Linear(in_features=128, out_features=384, bias=False)
                (o): Linear(in_features=384, out_features=128, bias=False)
              )
              (layer_norm): FusedRMSNorm(torch.Size([128]), eps=1e-06, elementwise_affine=True)
              (dropout): Dropout(p=0.1, inplace=False)
            )
            (1): T5LayerCrossAttention(
              (EncDecAttention): T5Attention(
                (q): Linear(in_features=128, out_features=384, bias=False)
                (k): Linear(in_features=128, out_features=384, bias=False)
                (v): Linear(in_features=128, out_features=384, bias=False)
                (o): Linear(in_features=384, out_features=128, bias=False)
              )
              (layer_norm): FusedRMSNorm(torch.Size([128]), eps=1e-06, elementwise_affine=True)
              (dropout): Dropout(p=0.1, inplace=False)
            )
            (2): T5LayerFF(
              (DenseReluDense): T5DenseActDense(
                (wi): Linear(in_features=128, out_features=1024, bias=False)
                (wo): Linear(in_features=1024, out_features=128, bias=False)
                (dropout): Dropout(p=0.1, inplace=False)
                (act): ReLU()
              )
              (layer_norm): FusedRMSNorm(torch.Size([128]), eps=1e-06, elementwise_affine=True)
              (dropout): Dropout(p=0.1, inplace=False)
            )
          )
        )
      )
      (final_layer_norm): FusedRMSNorm(torch.Size([128]), eps=1e-06, elementwise_affine=True)
      (dropout): Dropout(p=0.1, inplace=False)
    )
    (lm_head): Linear(in_features=128, out_features=3127, bias=False)
  )
)
INFO:root:Test Before Training: (HR@5:0.0518,NDCG@5:0.0334,HR@10:0.0957,NDCG@10:0.0475,HR@20:0.1893,NDCG@20:0.0708,HR@50:0.5045,NDCG@50:0.1322)
INFO:root:Optimizer: Adam
INFO:root:Epoch 1     loss=3.2084 [37.6 s]	dev=(HR@5:0.0769,NDCG@5:0.0459) [17.0 s] *
INFO:root:Epoch 2     loss=1.3812 [37.5 s]	dev=(HR@5:0.0769,NDCG@5:0.0455) [17.2 s]
INFO:root:Epoch 3     loss=1.3672 [37.4 s]	dev=(HR@5:0.0753,NDCG@5:0.0467) [17.0 s] *
…
