…
 random_seed          | 0                   
 save_converted_codes | 1                   
 save_final_results   | 1                   
 test_all             | 0                   
 tiger_code_path      |                     
 topk                 | 5,10,20,50          
 vocab_size           | 1025                
=============================================
INFO:root:Device: cuda
INFO:root:Load corpus from ../data/MovieLens_1M/ML_1MTOPK/TIGERReader.pkl
INFO:root:TIGER: using corpus.item_codes already present
INFO:root:#params: 4859904
INFO:root:TIGER(
  (model): T5ForConditionalGeneration(
    (shared): Embedding(3127, 128)
    (encoder): T5Stack(
      (embed_tokens): Embedding(3127, 128)
      (block): ModuleList(
        (0): T5Block(
          (layer): ModuleList(
            (0): T5LayerSelfAttention(
              (SelfAttention): T5Attention(
                (q): Linear(in_features=128, out_features=384, bias=False)
                (k): Linear(in_features=128, out_features=384, bias=False)
                (v): Linear(in_features=128, out_features=384, bias=False)
                (o): Linear(in_features=384, out_features=128, bias=False)
                (relative_attention_bias): Embedding(32, 6)
              )
              (layer_norm): FusedRMSNorm(torch.Size([128]), eps=1e-06, elementwise_affine=True)
              (dropout): Dropout(p=0.1, inplace=False)
            )
            (1): T5LayerFF(
              (DenseReluDense): T5DenseActDense(
                (wi): Linear(in_features=128, out_features=1024, bias=False)
                (wo): Linear(in_features=1024, out_features=128, bias=False)
                (dropout): Dropout(p=0.1, inplace=False)
                (act): ReLU()
              )
              (layer_norm): FusedRMSNorm(torch.Size([128]), eps=1e-06, elementwise_affine=True)
              (dropout): Dropout(p=0.1, inplace=False)
            )
          )
        )
        (1-3): 3 x T5Block(
          (layer): ModuleList(
            (0): T5LayerSelfAttention(
              (SelfAttention): T5Attention(
                (q): Linear(in_features=128, out_features=384, bias=False)
                (k): Linear(in_features=128, out_features=384, bias=False)
                (v): Linear(in_features=128, out_features=384, bias=False)
                (o): Linear(in_features=384, out_features=128, bias=False)
              )
              (layer_norm): FusedRMSNorm(torch.Size([128]), eps=1e-06, elementwise_affine=True)
              (dropout): Dropout(p=0.1, inplace=False)
            )
            (1): T5LayerFF(
              (DenseReluDense): T5DenseActDense(
                (wi): Linear(in_features=128, out_features=1024, bias=False)
                (wo): Linear(in_features=1024, out_features=128, bias=False)
                (dropout): Dropout(p=0.1, inplace=False)
                (act): ReLU()
              )
              (layer_norm): FusedRMSNorm(torch.Size([128]), eps=1e-06, elementwise_affine=True)
              (dropout): Dropout(p=0.1, inplace=False)
            )
          )
        )
      )
      (final_layer_norm): FusedRMSNorm(torch.Size([128]), eps=1e-06, elementwise_affine=True)
      (dropout): Dropout(p=0.1, inplace=False)
    )
    (decoder): T5Stack(
      (embed_tokens): Embedding(3127, 128)
      (block): ModuleList(
        (0): T5Block(
          (layer): ModuleList(
            (0): T5LayerSelfAttention(
              (SelfAttention): T5Attention(
                (q): Linear(in_features=128, out_features=384, bias=False)
                (k): Linear(in_features=128, out_features=384, bias=False)
                (v): Linear(in_features=128, out_features=384, bias=False)
                (o): Linear(in_features=384, out_features=128, bias=False)
                (relative_attention_bias): Embedding(32, 6)
              )
              (layer_norm): FusedRMSNorm(torch.Size([128]), eps=1e-06, elementwise_affine=True)
              (dropout): Dropout(p=0.1, inplace=False)
            )
            (1): T5LayerCrossAttention(
              (EncDecAttention): T5Attention(
                (q): Linear(in_features=128, out_features=384, bias=False)
                (k): Linear(in_features=128, out_features=384, bias=False)
                (v): Linear(in_features=128, out_features=384, bias=False)
                (o): Linear(in_features=384, out_features=128, bias=False)
              )
              (layer_norm): FusedRMSNorm(torch.Size([128]), eps=1e-06, elementwise_affine=True)
              (dropout): Dropout(p=0.1, inplace=False)
            )
            (2): T5LayerFF(
              (DenseReluDense): T5DenseActDense(
                (wi): Linear(in_features=128, out_features=1024, bias=False)
                (wo): Linear(in_features=1024, out_features=128, bias=False)
                (dropout): Dropout(p=0.1, inplace=False)
                (act): ReLU()
              )
              (layer_norm): FusedRMSNorm(torch.Size([128]), eps=1e-06, elementwise_affine=True)
              (dropout): Dropout(p=0.1, inplace=False)
            )
          )
        )
        (1-3): 3 x T5Block(
          (layer): ModuleList(
            (0): T5LayerSelfAttention(
              (SelfAttention): T5Attention(
                (q): Linear(in_features=128, out_features=384, bias=False)
                (k): Linear(in_features=128, out_features=384, bias=False)
                (v): Linear(in_features=128, out_features=384, bias=False)
                (o): Linear(in_features=384, out_features=128, bias=False)
              )
              (layer_norm): FusedRMSNorm(torch.Size([128]), eps=1e-06, elementwise_affine=True)
              (dropout): Dropout(p=0.1, inplace=False)
            )
            (1): T5LayerCrossAttention(
              (EncDecAttention): T5Attention(
                (q): Linear(in_features=128, out_features=384, bias=False)
                (k): Linear(in_features=128, out_features=384, bias=False)
                (v): Linear(in_features=128, out_features=384, bias=False)
                (o): Linear(in_features=384, out_features=128, bias=False)
              )
              (layer_norm): FusedRMSNorm(torch.Size([128]), eps=1e-06, elementwise_affine=True)
              (dropout): Dropout(p=0.1, inplace=False)
            )
            (2): T5LayerFF(
              (DenseReluDense): T5DenseActDense(
                (wi): Linear(in_features=128, out_features=1024, bias=False)
                (wo): Linear(in_features=1024, out_features=128, bias=False)
                (dropout): Dropout(p=0.1, inplace=False)
                (act): ReLU()
              )
              (layer_norm): FusedRMSNorm(torch.Size([128]), eps=1e-06, elementwise_affine=True)
              (dropout): Dropout(p=0.1, inplace=False)
            )
          )
        )
      )
      (final_layer_norm): FusedRMSNorm(torch.Size([128]), eps=1e-06, elementwise_affine=True)
      (dropout): Dropout(p=0.1, inplace=False)
    )
    (lm_head): Linear(in_features=128, out_features=3127, bias=False)
  )
)
INFO:root:Test Before Training: (HR@5:0.0428,NDCG@5:0.0251,HR@10:0.0929,NDCG@10:0.0413,HR@20:0.1980,NDCG@20:0.0677,HR@50:0.5010,NDCG@50:0.1269)
INFO:root:Optimizer: Adam
INFO:root:Epoch 1     loss=2.8097 [64.4 s]	dev=(HR@5:0.0761,NDCG@5:0.0453) [19.5 s] *
INFO:root:Epoch 2     loss=1.3733 [63.9 s]	dev=(HR@5:0.0781,NDCG@5:0.0454) [19.5 s] *
INFO:root:Epoch 3     loss=1.3631 [64.2 s]	dev=(HR@5:0.0796,NDCG@5:0.0471) [19.5 s] *
…
